TFLite_Models/model.tflite (tflite, 90256 bytes, 19 tensors)

sequential_1/conv2d_6/Conv2D i1 [16, 3, 3, 3]
-102 97 0 -113 -115 -109 -127 85
0 -89 0 0 0 0 0 0
0 0 0 0 0 0 -83 0
0 0 0 0 115 0 0 0
-124 0 0 0 0 -96 0 -92
0 0 0 127 93 105 0 0
0 99 -108 0 -112 0 0 0
0 127 0 0 0 -83 0 -99
-80 74 -67 109 0 72 -65 0
-88 0 0 0 0 -87 0 74
99 0 0 0 0 0 0 85
0 -84 -122 121 0 0 0 0
0 0 -110 0 125 97 -107 121
0 -127 0 0 0 0 -6 0
0 98 -89 0 0 -5 0 -127
-116 0 -120 92 0 99 -106 111
-7 -4 73 72 70 0 -5 -80
-118 -99 0 112 0 0 -84 0
0 0 93 0 -106 0 0 0
0 127 0 0 0 0 0 98
0 85 0 -76 0 0 0 103
-98 0 -117 -127 -119 -111 -80 0
-105 0 0 -78 0 0 0 0
-98 0 0 0 -125 102 0 0
85 71 0 5 0 0 85 79
71 0 0 94 4 0 0 0
-5 -78 0 -127 0 -75 0 81
0 -80 0 102 0 0 0 87
0 0 0 106 -111 -121 -94 0
86 -121 0 99 0 107 127 0
-126 0 -87 0 84 0 0 -127
-105 0 0 -125 0 90 0 -84
00000000: 9a61 008f 8d93 8155 00a7 0000 0000 0000
00000010: 0000 0000 0000 ad00 0000 0000 7300 0000
00000020: 8400 0000 00a0 00a4 0000 007f 5d69 0000
00000030: 0063 9400 9000 0000 007f 0000 00ad 009d
00000040: b04a bd6d 0048 bf00 a800 0000 00a9 004a
00000050: 6300 0000 0000 0055 00ac 8679 0000 0000
00000060: 0000 9200 7d61 9579 0081 0000 0000 fa00
00000070: 0062 a700 00fb 0081 8c00 885c 0063 966f
00000080: f9fc 4948 4600 fbb0 8a9d 0070 0000 ac00
00000090: 0000 5d00 9600 0000 007f 0000 0000 0062
000000a0: 0055 00b4 0000 0067 9e00 8b81 8991 b000
000000b0: 9700 00b2 0000 0000 9e00 0000 8366 0000
000000c0: 5547 0005 0000 554f 4700 005e 0400 0000
000000d0: fbb2 0081 00b5 0051 00b0 0066 0000 0057
000000e0: 0000 006a 9187 a200 5687 0063 006b 7f00
000000f0: 8200 a900 5400 0081 9700 0083 005a 00ac

sequential_1/batch_normalization_6/FusedBatchNormV3 i1 [16] scale=0.1288024 zero_point=-128
31.68539 23.957247 28.465332 22.282816 21.896408 17.517126 31.298985 4.894491
20.479582 32.844612 20.86599 4.894491 31.298985 17.388325 6.44012 28.207726
00000000: 763a 5d2d 2a08 73a6 1f7f 22a6 7307 b25b

sequential_1/batch_normalization_6/FusedBatchNormV31 i1 [16] scale=0.007512464 zero_point=127
-0.045074783 -0.9841328 -0.12019943 -0.36811075 -0.69114673 -0.7737838 -0.05258725 -1.6527421
-0.72119653 -0.030049857 -0.69114673 -1.9156784 -0.1051745 -0.9916453 -0.8864708 -0.20283653
00000000: 79fc 6f4e 2318 78a3 1f7b 2380 71fb 0964

sequential_1/conv2d_7/Conv2D i1 [16, 3, 3, 16]
0 0 0 0 0 -51 127 0
-64 80 -40 0 0 -42 38 0
116 0 0 0 0 0 69 -49
0 0 0 -65 0 0 0 0
0 0 0 0 39 0 85 0
0 59 0 0 56 0 0 0
0 57 38 0 0 0 111 0
0 0 44 47 0 0 0 0
0 0 0 0 0 -61 80 48
62 0 0 0 0 68 0 62
76 -64 0 40 -47 47 79 67
0 0 0 0 63 59 60 0
122 0 -48 0 0 63 74 0
0 0 0 53 61 0 0 0
0 52 51 0 0 0 0 48
0 88 0 0 50 0 0 69
110 0 0 0 -55 0 47 -43
0 0 0 0 0 0 41 0
0 62 0 -5 0 0 0 -79
-57 0 0 0 -67 0 -71 0
0 0 -74 -5 85 0 0 68
0 71 0 0 92 0 0 0
0 0 5 90 -127 84 0 0
0 -63 60 -69 0 -68 0 0
0 87 -63 -5 0 -70 0 0
66 0 78 65 -79 0 0 0
0 -81 0 -5 -80 64 0 0
0 0 0 0 0 0 -73 0
-75 -80 66 -4 -74 -73 0 0
0 0 0 0 0 0 81 55
0 0 0 -4 0 -80 0 0
0 0 -76 0 -66 0 0 61
00000000: 0000 0000 00cd 7f00 c050 d800 00d6 2600
00000010: 7400 0000 0000 45cf 0000 00bf 0000 0000
00000020: 0000 0000 2700 5500 003b 0000 3800 0000
00000030: 0039 2600 0000 6f00 0000 2c2f 0000 0000
00000040: 0000 0000 00c3 5030 3e00 0000 0044 003e
00000050: 4cc0 0028 d12f 4f43 0000 0000 3f3b 3c00
00000060: 7a00 d000 003f 4a00 0000 0035 3d00 0000
00000070: 0034 3300 0000 0030 0058 0000 3200 0045
00000080: 6e00 0000 c900 2fd5 0000 0000 0000 2900
00000090: 003e 00fb 0000 00b1 c700 0000 bd00 b900
000000a0: 0000 b6fb 5500 0044 0047 0000 5c00 0000
000000b0: 0000 055a 8154 0000 00c1 3cbb 00bc 0000
000000c0: 0057 c1fb 00ba 0000 4200 4e41 b100 0000
000000d0: 00af 00fb b040 0000 0000 0000 0000 b700
000000e0: b5b0 42fc b6b7 0000 0000 0000 0000 5137
000000f0: 0000 00fc 00b0 0000 0000 b400 be00 003d

sequential_1/batch_normalization_7/FusedBatchNormV3 i1 [16] scale=0.018741062 zero_point=-128
4.7789707 4.6665244 2.5487845 2.136481 2.9798288 3.8419178 3.8793998 4.1417747
2.136481 2.2864096 1.7429187 3.673248 2.8673825 2.3238916 3.991846 1.518026
00000000: 7f79 08f2 1f4d 4f5d f2fa dd44 19fc 55d1

sequential_1/batch_normalization_7/FusedBatchNormV31 i1 [16] scale=0.004362799 zero_point=127
-0.33157274 -0.6020663 -0.6544199 -0.7373131 -0.6762339 -0.82893187 -0.6631455 -1.1125138
-0.5540755 -0.62388027 -0.5715267 -0.6151547 -0.75476426 -0.6762339 -0.6020663 -0.7373131
00000000: 33f5 e9d6 e4c1 e780 00f0 fcf2 d2e4 f5d6

sequential_1/conv2d_8/Conv2D i1 [32, 3, 3, 16]
-57 0 -55 -61 0 -92 0 -77
0 -88 72 0 0 0 0 67
0 0 -54 0 -56 0 0 0
0 -3 0 -109 -73 0 0 0
0 0 -62 0 0 0 4 0
-50 -4 0 0 0 0 0 0
-51 0 59 -5 68 0 0 -52
0 -62 0 0 0 0 0 0
0 -73 0 0 -52 -96 -73 -52
0 -120 0 0 0 -66 0 0
0 -80 0 0 -61 -97 4 -82
73 0 91 -96 -73 0 -58 0
0 0 0 0 0 0 0 0
-88 0 0 -127 0 0 59 -48
0 0 0 0 0 -61 0 -6
0 -67 83 -111 -88 0 0 0
0 -4 0 0 -76 0 -57 -5
-80 -85 57 -91 0 -50 0 0
85 0 -73 0 0 0 0 0
-92 0 0 0 0 0 80 0
61 -84 -61 0 -56 0 -93 0
-107 -80 0 58 0 -73 -59 -107
0 -87 0 0 -64 -91 0 -103
0 81 0 0 5 0 -75 -87
84 0 85 0 0 77 -56 0
0 0 0 66 0 0 0 0
0 -81 0 61 0 0 0 0
-127 0 0 98 0 0 -113 -84
119 72 -77 -65 0 0 -73 -89
0 79 0 104 4 -67 -101 0
0 0 0 0 0 0 -76 -97
0 0 63 0 0 0 0 0
00000000: c700 c9c3 00a4 00b3 00a8 4800 0000 0043
00000010: 0000 ca00 c800 0000 00fd 0093 b700 0000
00000020: 0000 c200 0000 0400 cefc 0000 0000 0000
00000030: cd00 3bfb 4400 00cc 00c2 0000 0000 0000
00000040: 00b7 0000 cca0 b7cc 0088 0000 00be 0000
00000050: 00b0 0000 c39f 04ae 4900 5ba0 b700 c600
00000060: 0000 0000 0000 0000 a800 0081 0000 3bd0
00000070: 0000 0000 00c3 00fa 00bd 5391 a800 0000
00000080: 00fc 0000 b400 c7fb b0ab 39a5 00ce 0000
00000090: 5500 b700 0000 0000 a400 0000 0000 5000
000000a0: 3dac c300 c800 a300 95b0 003a 00b7 c595
000000b0: 00a9 0000 c0a5 0099 0051 0000 0500 b5a9
000000c0: 5400 5500 004d c800 0000 0042 0000 0000
000000d0: 00af 003d 0000 0000 8100 0062 0000 8fac
000000e0: 7748 b3bf 0000 b7a7 004f 0068 04bd 9b00
000000f0: 0000 0000 0000 b49f 0000 3f00 0000 0000

sequential_1/batch_normalization_8/FusedBatchNormV3 i1 [32] scale=0.008209706 zero_point=-128
2.0195878 1.3217627 0.7060347 0.6649862 1.0754715 0.96874535 2.093475 0.8538095
1.6008928 0.83739007 0.8455998 1.1657783 0.77992207 1.1986171 0.96874535 0.8702289
1.1083103 1.1329395 0.82918036 0.8620192 1.3546015 0.73066384 0.77992207 1.5023762
1.1493589 0.8455998 1.0015842 0.75529295 1.1001006 1.4366986 1.1247298 1.0590521
00000000: 7621 d6d1 03f6 7fe8 43e6 e70e df12 f6ea
00000010: 070a e5e9 25d9 df37 0ce7 fadc 062f 0901

sequential_1/batch_normalization_8/FusedBatchNormV31 i1 [32] scale=0.0034301972 zero_point=127
-0.48022762 -0.6037147 -0.6242959 -0.7169112 -0.46993703 -0.6071449 -0.504239 -0.59342414
-0.6037147 -0.7340622 -0.6140053 -0.6140053 -0.6242959 -0.52138996 -0.8747003 -0.75807357
-0.713481 -0.7374924 -0.79580575 -0.5110994 -0.747783 -0.504239 -0.6448771 -0.63115627
-0.713481 -0.61057514 -0.55912215 -0.6037147 -0.5076692 -0.6928998 -0.6448771 -0.81295675
00000000: f3cf c9ae f6ce ecd2 cfa9 cccc c9e7 80a2
00000010: afa8 97ea a5ec c3c7 afcd dccf ebb5 c392

sequential_1/conv2d_9/Conv2D i1 [32, 3, 3, 32]
0 -60 0 72 0 0 -77 0
-63 -4 0 75 0 58 75 -73
-58 6 0 0 0 -6 -3 0
0 -5 0 5 6 0 0 0
-109 0 -112 94 0 0 0 -56
0 0 0 0 0 0 76 0
-96 4 0 -4 4 -5 -72 104
72 -69 88 123 0 98 0 -83
63 -60 -95 0 -61 0 -67 0
69 0 79 79 108 -87 69 -65
0 75 93 -85 -63 0 0 0
79 0 69 93 60 0 -94 0
0 0 0 96 0 0 -100 108
0 -65 66 67 71 -103 0 -69
-70 6 0 -5 -63 -76 0 0
0 0 0 76 88 73 65 0
0 0 0 -62 0 102 0 0
81 0 0 0 56 55 -76 0
0 3 0 0 0 0 0 0
0 0 0 116 0 0 0 87
-125 -103 0 74 74 0 -61 0
105 0 0 -68 90 0 75 0
0 82 0 0 0 -62 -79 4
0 0 0 0 73 0 -59 -70
0 4 -3 127 0 0 -82 101
0 -80 0 85 90 0 -87 6
0 4 -79 -5 0 -4 0 0
0 65 83 0 0 0 0 73
-84 0 68 0 0 -61 0 0
0 0 100 4 0 0 0 102
0 -74 0 0 68 86 0 0
0 0 0 0 0 93 0 0
00000000: 00c4 0048 0000 b300 c1fc 004b 003a 4bb7
00000010: c606 0000 00fa fd00 00fb 0005 0600 0000
00000020: 9300 905e 0000 00c8 0000 0000 0000 4c00
00000030: a004 00fc 04fb b868 48bb 587b 0062 00ad
00000040: 3fc4 a100 c300 bd00 4500 4f4f 6ca9 45bf
00000050: 004b 5dab c100 0000 4f00 455d 3c00 a200
00000060: 0000 0060 0000 9c6c 00bf 4243 4799 00bb
00000070: ba06 00fb c1b4 0000 0000 004c 5849 4100
00000080: 0000 00c2 0066 0000 5100 0000 3837 b400
00000090: 0003 0000 0000 0000 0000 0074 0000 0057
000000a0: 8399 004a 4a00 c300 6900 00bc 5a00 4b00
000000b0: 0052 0000 00c2 b104 0000 0000 4900 c5ba
000000c0: 0004 fd7f 0000 ae65 00b0 0055 5a00 a906
000000d0: 0004 b1fb 00fc 0000 0041 5300 0000 0049
000000e0: ac00 4400 00c3 0000 0000 6404 0000 0066
000000f0: 00b6 0000 4456 0000 0000 0000 005d 0000

sequential_1/batch_normalization_9/FusedBatchNormV3 i1 [32] scale=0.006978954 zero_point=-128
0.94913775 1.4027698 1.2143381 1.1515274 1.5842226 1.2352749 0.9770536 0.94913775
0.9770536 1.3888118 1.1794432 1.3469381 1.1026747 1.2282959 1.5493279 1.7307806
1.0747589 1.1724643 1.1794432 1.5842226 1.2771486 1.0817379 1.5772437 1.7796333
0.8584114 1.367875 1.4237067 1.0328852 1.0328852 1.1654854 1.5493279 0.8723693
00000000: 0849 2e25 6331 0c08 0c47 2941 1e30 5e78
00000010: 1a28 2963 371b 627f fb44 4c14 1427 5efd

sequential_1/batch_normalization_9/FusedBatchNormV31 i1 [32] scale=0.0036030947 zero_point=127
-0.42876828 -0.8251087 -0.65576327 -0.49722707 -0.70260346 -0.70980966 -0.78907776 -0.55847967
-0.77106225 -0.9007737 -0.8034901 -0.55847967 -0.6593663 -0.6125261 -0.7314282 -0.77826846
-0.69900036 -0.77106225 -0.5981137 -0.6629694 -0.7386344 -0.8287118 -0.65576327 -0.70620656
-0.70260346 -0.71341276 -0.5296549 -0.56568587 -0.62693846 -0.91878915 -0.71341276 -0.44318065
00000000: 089a c9f5 bcba a4e4 a985 a0e4 c8d5 b4a7
00000010: bda9 d9c7 b299 c9bb bcb9 ece2 d180 b904

sequential_1/conv2d_10/Conv2D i1 [64, 3, 3, 32]
75 0 0 0 0 0 -51 0
0 -75 50 -50 0 0 57 0
0 -50 0 60 0 0 0 0
0 -47 63 0 0 0 0 -82
48 51 -49 0 -64 -64 0 43
-47 -3 0 0 0 0 48 85
54 -54 0 80 0 0 0 67
0 4 0 44 0 0 83 0
86 0 0 0 -96 40 0 78
89 -2 0 5 41 54 0 -63
0 0 -67 0 71 0 4 96
0 101 0 -5 -60 71 0 -66
0 0 0 74 0 0 -80 57
0 50 -58 -106 0 -99 0 0
-92 0 0 0 47 0 -5 -52
0 -59 66 -57 -72 0 0 -69
0 -61 -49 0 -59 0 0 0
0 -80 0 0 -51 0 56 -48
71 0 0 0 0 0 67 0
-67 0 50 41 0 0 -51 -53
0 0 -71 0 -68 -4 77 0
0 0 0 62 -4 0 0 0
0 0 -77 58 4 0 0 47
0 6 55 -6 0 -5 3 0
-111 0 0 0 0 61 0 0
70 -72 0 -88 -42 0 0 -127
-71 0 0 52 0 0 -75 -72
70 0 -46 0 0 -95 -83 -51
-4 66 0 52 -77 63 0 0
53 0 -53 0 0 0 65 0
0 55 0 0 80 -55 0 0
0 -69 0 -6 -52 -75 0 -4
00000000: 4b00 0000 0000 cd00 00b5 32ce 0000 3900
00000010: 00ce 003c 0000 0000 00d1 3f00 0000 00ae
00000020: 3033 cf00 c0c0 002b d1fd 0000 0000 3055
00000030: 36ca 0050 0000 0043 0004 002c 0000 5300
00000040: 5600 0000 a028 004e 59fe 0005 2936 00c1
00000050: 0000 bd00 4700 0460 0065 00fb c447 00be
00000060: 0000 004a 0000 b039 0032 c696 009d 0000
00000070: a400 0000 2f00 fbcc 00c5 42c7 b800 00bb
00000080: 00c3 cf00 c500 0000 00b0 0000 cd00 38d0
00000090: 4700 0000 0000 4300 bd00 3229 0000 cdcb
000000a0: 0000 b900 bcfc 4d00 0000 003e fc00 0000
000000b0: 0000 b33a 0400 002f 0006 37fa 00fb 0300
000000c0: 9100 0000 003d 0000 46b8 00a8 d600 0081
000000d0: b900 0034 0000 b5b8 4600 d200 00a1 adcd
000000e0: fc42 0034 b33f 0000 3500 cb00 0000 4100
000000f0: 0037 0000 50c9 0000 00bb 00fa ccb5 00fc

sequential_1/batch_normalization_10/FusedBatchNormV3 i1 [64] scale=0.006606725 zero_point=-128
1.0042222 0.83244735 0.8985146 0.7465599 0.7465599 0.8853012 0.98440206 0.99100876
0.9183348 0.8985146 1.0768962 1.3741988 0.99100876 0.9183348 0.9447617 1.3808055
0.53514475 1.6847149 0.7862003 0.5879985 0.7729868 1.5922208 0.9183348 0.98440206
0.69370615 1.1165365 0.8390541 1.2024239 1.5525804 1.2552778 0.5549649 0.720133
1.2156374 1.0504693 0.720133 0.7399532 0.9051213 0.9513684 0.85887426 0.720133
0.8919079 0.8720877 0.9249415 0.7795935 1.1099298 1.12975 0.720133 0.6276389
1.2354575 0.82584065 1.0901096 0.83244735 0.5879985 0.7862003 1.1033231 1.0174357
0.8456608 0.6606725 0.9117281 0.8919079 1.5790073 1.4006257 1.1561769 0.6276389
00000000: 18fe 08f1 f106 1516 0b08 2350 160b 0f51
00000010: d17f f7d9 f571 0b15 e929 ff36 6b3e d4ed
00000020: 381f edf0 0910 02ed 0704 0cf6 282b eddf
00000030: 3bfd 25fe d9f7 271a 00e4 0a07 6f54 2fdf

sequential_1/batch_normalization_10/FusedBatchNormV31 i1 [64] scale=0.003346113 zero_point=127
-0.48184028 -0.5588009 -0.5420703 -0.81310546 -0.4952247 -0.53203195 -0.53203195 -0.66253036
-0.75622153 -0.592262 -0.5253397 -0.42495635 -0.65249205 -0.5688392 -0.60230035 -0.5119553
-0.5889159 -0.45172524 -0.7294526 -0.60564643 -0.39818746 -0.35134187 -0.56214696 -0.58222365
-0.5554548 -0.53203195 -0.56214696 -0.52868587 -0.45507136 -0.5186475 -0.6692226 -0.66253036
-0.68260705 -0.56214696 -0.68260705 -0.68260705 -0.61233866 -0.6457998 -0.5956081 -0.85325885
-0.8499127 -0.6257231 -0.45841748 -0.7796443 -0.47514805 -0.7428371 -0.62237704 -0.6156848
-0.4952247 -0.53203195 -0.67256874 -0.6089926 -0.5654931 -0.6591843 -0.41826412 -0.61233866
-0.5554548 -0.44503304 -0.592262 -0.7194143 -0.34130353 -0.4383408 -0.5956081 -0.6591843
00000000: efd8 dd8c ebe0 e0b9 9dce e200 bcd5 cbe6
00000010: cff8 a5ca 0816 d7d1 d9e0 d7e1 f7e4 b7b9
00000020: b3d7 b3b3 c8be cd80 81c4 f696 f1a1 c5c7
00000030: ebe0 b6c9 d6ba 02c8 d9fa cea8 19fc cdba

sequential_1/conv2d_11/Conv2D i1 [64, 3, 3, 64]
0 0 -68 -59 -46 0 0 0
0 0 49 0 66 0 0 0
0 106 0 0 0 0 0 48
0 -54 86 62 -66 0 0 0
0 53 64 -78 0 0 0 0
-74 -60 0 0 0 0 0 -6
50 0 0 0 -73 0 -70 0
0 0 0 -5 -74 -55 -55 -57
0 46 0 0 0 0 0 -51
0 0 0 -62 63 52 53 0
-81 82 -55 45 47 73 0 0
-85 -115 0 0 60 72 -90 0
-70 50 63 0 0 52 0 -6
0 0 63 47 55 0 52 -7
93 0 56 -78 0 0 0 60
-73 -88 -68 0 0 0 43 61
-59 0 0 0 82 0 63 0
81 0 0 88 0 -50 -79 0
0 0 0 0 0 64 0 50
-61 -119 0 0 0 -58 0 0
0 0 47 -73 0 81 0 -70
-47 0 0 0 0 0 68 -84
104 -55 0 -95 -116 49 0 0
0 -98 0 0 0 0 0 -48
0 0 0 -49 0 0 -6 0
96 -83 0 0 63 0 0 0
0 84 0 0 52 104 62 0
0 0 -53 115 -65 -61 0 -44
47 0 -50 0 0 0 0 -55
-81 83 0 0 0 0 0 0
52 0 0 0 0 -52 -71 0
0 0 -43 0 -47 55 54 0
00000000: 0000 bcc5 d200 0000 0000 3100 4200 0000
00000010: 006a 0000 0000 0030 00ca 563e be00 0000
00000020: 0035 40b2 0000 0000 b6c4 0000 0000 00fa
00000030: 3200 0000 b700 ba00 0000 00fb b6c9 c9c7
00000040: 002e 0000 0000 00cd 0000 00c2 3f34 3500
00000050: af52 c92d 2f49 0000 ab8d 0000 3c48 a600
00000060: ba32 3f00 0034 00fa 0000 3f2f 3700 34f9
00000070: 5d00 38b2 0000 003c b7a8 bc00 0000 2b3d
00000080: c500 0000 5200 3f00 5100 0058 00ce b100
00000090: 0000 0000 0040 0032 c389 0000 00c6 0000
000000a0: 0000 2fb7 0051 00ba d100 0000 0000 44ac
000000b0: 68c9 00a1 8c31 0000 009e 0000 0000 00d0
000000c0: 0000 00cf 0000 fa00 60ad 0000 3f00 0000
000000d0: 0054 0000 3468 3e00 0000 cb73 bfc3 00d4
000000e0: 2f00 ce00 0000 00c9 af53 0000 0000 0000
000000f0: 3400 0000 00cc b900 0000 d500 d137 3600

sequential_1/batch_normalization_11/FusedBatchNormV3 i1 [64] scale=0.0059568645 zero_point=-128
1.3998631 0.89352965 1.1139337 0.9530983 1.2628553 1.3700788 1.0662787 1.4117769
1.0901062 1.1079768 1.096063 0.9590552 0.9888395 1.2866827 1.3402945 1.2271141
0.923314 0.91735715 1.4415612 1.1913729 0.87565905 1.0662787 1.3283808 1.0007533
1.012667 1.3760357 1.0364944 1.1020199 1.3462514 1.40582 1.0781925 1.5190004
1.0841494 1.2807258 1.4892161 1.0305376 1.2211572 1.2568984 1.3939062 1.2568984
1.1675454 1.1973298 0.92927086 0.86374533 1.3998631 1.2152003 1.143718 1.2092435
1.3045533 1.2688122 1.185416 0.9709689 1.2271141 1.5011299 0.94714147 1.1735023
1.2509415 1.1556317 0.9590552 1.2092435 0.9411846 0.8875728 1.054365 1.1735023
00000000: 6b16 3b20 5466 336d 373a 3821 2658 614e
00000010: 1b1a 7248 1333 5f28 2a67 2e39 626c 357f
00000020: 3657 7a2d 4d53 6a53 4449 1c11 6b4c 404b
00000030: 5b55 4723 4e7c 1f45 5242 214b 1e15 3145

sequential_1/batch_normalization_11/FusedBatchNormV31 i1 [64] scale=0.003714601 zero_point=127
-0.79863924 -0.8246414 -0.65005517 -0.78749543 -0.7614932 -0.772637 -0.7429202 -0.7206326
-0.8803604 -0.6686282 -0.8060684 -0.7094888 -0.83949983 -0.9212211 -0.83949983 -0.83949983
-0.7689224 -0.9323649 -0.6574844 -0.63891137 -0.6909158 -0.7503494 -0.716918 -0.6834866
-0.772637 -0.8172122 -0.7206326 -0.8172122 -0.85435826 -0.7429202 -0.85435826 -0.7429202
-0.7837808 -0.89521885 -0.79863924 -0.8580728 -0.735491 -0.7057742 -0.77635163 -0.78749543
-0.85064363 -0.79863924 -0.6909158 -0.78749543 -0.65005517 -0.7837808 -0.7057742 -0.6760574
-0.8580728 -0.6872012 -0.754064 -0.9323649 -0.94722325 -0.698345 -0.8134976 -0.7689224
-0.83949983 -0.79863924 -0.90264803 -0.8023538 -0.63891137 -0.85435826 -0.8246414 -0.7949246
00000000: a8a1 d0ab b2af b7bd 92cb a6c0 9d87 9d9d
00000010: b084 ced3 c5b5 bec7 afa3 bda3 99b7 99b7
00000020: ac8e a898 b9c1 aeab 9aa8 c5ab d0ac c1c9
00000030: 98c6 b484 80c3 a4b0 9da8 8ca7 d399 a1a9

sequential_1/dense_1/MatMul i1 [24, 64] scale=0.0032665355 zero_point=0
0.0 0.0 0.22865748 0.0 -0.009799606 0.0 0.0 0.0
0.0 0.0 0.0 0.0 -0.2939882 -0.18292598 0.0 -0.25478977
-0.18292598 -0.22865748 0.21885787 0.0 0.0 -0.24172363 -0.23192401 0.0
0.2678559 0.0 0.0 0.0 0.2123248 0.0 0.0 0.41485
-0.22212441 0.20905827 0.22539094 0.0 -0.17312638 -0.33645314 0.0 0.19599213
0.2580563 -0.29072165 0.0 -0.26458937 -0.013066142 0.0 0.18619253 -0.24499016
0.0 -0.30705434 -0.27438897 0.0 0.0 0.0 -0.2123248 0.18292598
0.0 0.0 0.0 0.0 -0.18945906 -0.006533071 -0.28092206 -0.3135874
0.0 0.0 0.0 0.0 0.0 0.0 0.0 -0.2939882
0.0 0.0 -0.19925867 0.0 0.0 0.0 0.0 0.0
0.0 -0.26458937 0.18945906 -0.009799606 -0.21559134 -0.2678559 0.0 0.0
0.0 -0.20905827 0.0 0.0 -0.33645314 0.0 0.0 0.0
0.0 0.0 0.20579174 0.0 -0.2776555 0.23519056 0.22865748 0.0
-0.32012048 0.0 0.19925867 0.0 0.0 -0.013066142 0.0 0.0
0.0 0.0 0.0 0.0 0.23192401 0.0 0.24172363 -0.18619253
0.0 0.0 0.0 0.0 -0.26458937 0.0 0.0 0.18945906
0.0 0.0 -0.009799606 0.0 0.0 -0.2939882 0.22539094 -0.2776555
-0.17965946 0.22539094 0.0 0.18619253 0.0 0.0 0.0 0.0
0.0 -0.2776555 0.0 0.0 -0.26132283 0.0 0.0 0.0
0.0 0.0 -0.27112246 0.0 -0.18619253 0.0 0.2939882 0.2482567
0.0 0.0 -0.26458937 0.0 -0.2841886 0.0 0.0 0.22212441
-0.17639291 -0.17965946 0.0 0.0 0.0 0.0 0.0 -0.009799606
0.17965946 0.0 0.0 -0.2776555 0.17312638 0.0 0.0 -0.23519056
0.16332677 0.0 0.22539094 0.0 0.0 -0.24172363 0.0 0.18619253
0.0 0.0 0.0 -0.006533071 0.0 0.0 0.29725474 0.0
-0.17639291 -0.30705434 -0.3037878 -0.24172363 0.0 0.0 0.0 0.0
-0.323387 0.29072165 -0.009799606 0.0 0.0 -0.3037878 0.19925867 0.2678559
0.22212441 0.0 0.0 0.0 0.0 -0.009799606 -0.2580563 -0.21885787
0.2874551 -0.17639291 0.23192401 0.19925867 -0.006533071 -0.009799606 -0.33971968 -0.26132283
0.0 0.0 0.0 0.0 0.0 -0.26132283 0.19599213 -0.33318663
-0.17639291 0.0 -0.3037878 0.0 0.0 -0.20579174 -0.19925867 -0.016332677
0.0 -0.006533071 0.0 -0.22212441 0.18292598 -0.33318663 -0.2025252 0.21885787
00000000: 0000 4600 fd00 0000 0000 0000 a6c8 00b2
00000010: c8ba 4300 00b6 b900 5200 0000 4100 007f
00000020: bc40 4500 cb99 003c 4fa7 00af fc00 39b5
00000030: 00a2 ac00 0000 bf38 0000 0000 c6fe aaa0
00000040: 0000 0000 0000 00a6 0000 c300 0000 0000
00000050: 00af 3afd beae 0000 00c0 0000 9900 0000
00000060: 0000 3f00 ab48 4600 9e00 3d00 00fc 0000
00000070: 0000 0000 4700 4ac7 0000 0000 af00 003a
00000080: 0000 fd00 00a6 45ab c945 0039 0000 0000
00000090: 00ab 0000 b000 0000 0000 ad00 c700 5a4c
000000a0: 0000 af00 a900 0044 cac9 0000 0000 00fd
000000b0: 3700 00ab 3500 00b8 3200 4500 00b6 0039
000000c0: 0000 00fe 0000 5b00 caa2 a3b6 0000 0000
000000d0: 9d59 fd00 00a3 3d52 4400 0000 00fd b1bd
000000e0: 58ca 473d fefd 98b0 0000 0000 00b0 3c9a
000000f0: ca00 a300 00c1 c3fb 00fe 00bc 389a c243
